"backend: tensorflow\nclass_name: Model\nconfig:\n  input_layers:\n  - [continuous,\
  \ 0, 0]\n  - [wordObject, 0, 0]\n  - [number, 0, 0]\n  - [numberLocation, 0, 0]\n\
  \  - [keyword, 0, 0]\n  - [alignment, 0, 0]\n  - [outlineLevel, 0, 0]\n  layers:\n\
  \  - class_name: InputLayer\n    config:\n      batch_input_shape: !!python/tuple\
  \ [null, 900]\n      dtype: float32\n      name: wordObject\n      sparse: false\n\
  \    inbound_nodes: []\n    name: wordObject\n  - class_name: InputLayer\n    config:\n\
  \      batch_input_shape: !!python/tuple [null, 900]\n      dtype: float32\n   \
  \   name: number\n      sparse: false\n    inbound_nodes: []\n    name: number\n\
  \  - class_name: InputLayer\n    config:\n      batch_input_shape: !!python/tuple\
  \ [null, 900]\n      dtype: float32\n      name: numberLocation\n      sparse: false\n\
  \    inbound_nodes: []\n    name: numberLocation\n  - class_name: InputLayer\n \
  \   config:\n      batch_input_shape: !!python/tuple [null, 900]\n      dtype: float32\n\
  \      name: keyword\n      sparse: false\n    inbound_nodes: []\n    name: keyword\n\
  \  - class_name: InputLayer\n    config:\n      batch_input_shape: !!python/tuple\
  \ [null, 900]\n      dtype: float32\n      name: alignment\n      sparse: false\n\
  \    inbound_nodes: []\n    name: alignment\n  - class_name: InputLayer\n    config:\n\
  \      batch_input_shape: !!python/tuple [null, 900]\n      dtype: float32\n   \
  \   name: outlineLevel\n      sparse: false\n    inbound_nodes: []\n    name: outlineLevel\n\
  \  - class_name: InputLayer\n    config:\n      batch_input_shape: !!python/tuple\
  \ [null, 900, 8]\n      dtype: float32\n      name: continuous\n      sparse: false\n\
  \    inbound_nodes: []\n    name: continuous\n  - class_name: Embedding\n    config:\n\
  \      activity_regularizer: null\n      batch_input_shape: !!python/tuple [null,\
  \ null]\n      dtype: float32\n      embeddings_constraint: null\n      embeddings_initializer:\n\
  \        class_name: RandomUniform\n        config: {maxval: 0.05, minval: -0.05,\
  \ seed: null}\n      embeddings_regularizer: null\n      input_dim: 5\n      input_length:\
  \ null\n      mask_zero: true\n      name: embedding_1\n      output_dim: 5\n  \
  \    trainable: true\n    inbound_nodes:\n    - - - wordObject\n        - 0\n  \
  \      - 0\n        - {}\n    name: embedding_1\n  - class_name: Embedding\n   \
  \ config:\n      activity_regularizer: null\n      batch_input_shape: !!python/tuple\
  \ [null, null]\n      dtype: float32\n      embeddings_constraint: null\n      embeddings_initializer:\n\
  \        class_name: RandomUniform\n        config: {maxval: 0.05, minval: -0.05,\
  \ seed: null}\n      embeddings_regularizer: null\n      input_dim: 11\n      input_length:\
  \ null\n      mask_zero: false\n      name: embedding_2\n      output_dim: 11\n\
  \      trainable: true\n    inbound_nodes:\n    - - - number\n        - 0\n    \
  \    - 0\n        - {}\n    name: embedding_2\n  - class_name: Embedding\n    config:\n\
  \      activity_regularizer: null\n      batch_input_shape: !!python/tuple [null,\
  \ null]\n      dtype: float32\n      embeddings_constraint: null\n      embeddings_initializer:\n\
  \        class_name: RandomUniform\n        config: {maxval: 0.05, minval: -0.05,\
  \ seed: null}\n      embeddings_regularizer: null\n      input_dim: 4\n      input_length:\
  \ null\n      mask_zero: true\n      name: embedding_3\n      output_dim: 4\n  \
  \    trainable: true\n    inbound_nodes:\n    - - - numberLocation\n        - 0\n\
  \        - 0\n        - {}\n    name: embedding_3\n  - class_name: Embedding\n \
  \   config:\n      activity_regularizer: null\n      batch_input_shape: !!python/tuple\
  \ [null, null]\n      dtype: float32\n      embeddings_constraint: null\n      embeddings_initializer:\n\
  \        class_name: RandomUniform\n        config: {maxval: 0.05, minval: -0.05,\
  \ seed: null}\n      embeddings_regularizer: null\n      input_dim: 9\n      input_length:\
  \ null\n      mask_zero: true\n      name: embedding_4\n      output_dim: 9\n  \
  \    trainable: true\n    inbound_nodes:\n    - - - keyword\n        - 0\n     \
  \   - 0\n        - {}\n    name: embedding_4\n  - class_name: Embedding\n    config:\n\
  \      activity_regularizer: null\n      batch_input_shape: !!python/tuple [null,\
  \ null]\n      dtype: float32\n      embeddings_constraint: null\n      embeddings_initializer:\n\
  \        class_name: RandomUniform\n        config: {maxval: 0.05, minval: -0.05,\
  \ seed: null}\n      embeddings_regularizer: null\n      input_dim: 6\n      input_length:\
  \ null\n      mask_zero: true\n      name: embedding_5\n      output_dim: 6\n  \
  \    trainable: true\n    inbound_nodes:\n    - - - alignment\n        - 0\n   \
  \     - 0\n        - {}\n    name: embedding_5\n  - class_name: Embedding\n    config:\n\
  \      activity_regularizer: null\n      batch_input_shape: !!python/tuple [null,\
  \ null]\n      dtype: float32\n      embeddings_constraint: null\n      embeddings_initializer:\n\
  \        class_name: RandomUniform\n        config: {maxval: 0.05, minval: -0.05,\
  \ seed: null}\n      embeddings_regularizer: null\n      input_dim: 11\n      input_length:\
  \ null\n      mask_zero: true\n      name: embedding_6\n      output_dim: 11\n \
  \     trainable: true\n    inbound_nodes:\n    - - - outlineLevel\n        - 0\n\
  \        - 0\n        - {}\n    name: embedding_6\n  - class_name: Concatenate\n\
  \    config: {axis: -1, name: concatenate_1, trainable: true}\n    inbound_nodes:\n\
  \    - - - continuous\n        - 0\n        - 0\n        - &id001 {}\n      - -\
  \ embedding_1\n        - 0\n        - 0\n        - *id001\n      - - embedding_2\n\
  \        - 0\n        - 0\n        - *id001\n      - - embedding_3\n        - 0\n\
  \        - 0\n        - *id001\n      - - embedding_4\n        - 0\n        - 0\n\
  \        - *id001\n      - - embedding_5\n        - 0\n        - 0\n        - *id001\n\
  \      - - embedding_6\n        - 0\n        - 0\n        - *id001\n    name: concatenate_1\n\
  \  - class_name: Masking\n    config: {mask_value: 0, name: masking_1, trainable:\
  \ true}\n    inbound_nodes:\n    - - - concatenate_1\n        - 0\n        - 0\n\
  \        - {}\n    name: masking_1\n  - class_name: Bidirectional\n    config:\n\
  \      layer:\n        class_name: GRU\n        config:\n          activation: tanh\n\
  \          activity_regularizer: null\n          bias_constraint: null\n       \
  \   bias_initializer:\n            class_name: Zeros\n            config: {}\n \
  \         bias_regularizer: null\n          dropout: 0.2\n          go_backwards:\
  \ false\n          implementation: 1\n          kernel_constraint: null\n      \
  \    kernel_initializer:\n            class_name: VarianceScaling\n            config:\
  \ {distribution: uniform, mode: fan_avg, scale: 1.0, seed: null}\n          kernel_regularizer:\
  \ null\n          name: gru_1\n          recurrent_activation: hard_sigmoid\n  \
  \        recurrent_constraint: null\n          recurrent_dropout: 0.0\n        \
  \  recurrent_initializer:\n            class_name: Orthogonal\n            config:\
  \ {gain: 1.0, seed: null}\n          recurrent_regularizer: null\n          return_sequences:\
  \ true\n          return_state: false\n          stateful: false\n          trainable:\
  \ true\n          units: 128\n          unroll: false\n          use_bias: true\n\
  \      merge_mode: concat\n      name: bidirectional_1\n      trainable: true\n\
  \    inbound_nodes:\n    - - - masking_1\n        - 0\n        - 0\n        - {}\n\
  \    name: bidirectional_1\n  - class_name: Bidirectional\n    config:\n      layer:\n\
  \        class_name: GRU\n        config:\n          activation: tanh\n        \
  \  activity_regularizer: null\n          bias_constraint: null\n          bias_initializer:\n\
  \            class_name: Zeros\n            config: {}\n          bias_regularizer:\
  \ null\n          dropout: 0.2\n          go_backwards: false\n          implementation:\
  \ 1\n          kernel_constraint: null\n          kernel_initializer:\n        \
  \    class_name: VarianceScaling\n            config: {distribution: uniform, mode:\
  \ fan_avg, scale: 1.0, seed: null}\n          kernel_regularizer: null\n       \
  \   name: gru_2\n          recurrent_activation: hard_sigmoid\n          recurrent_constraint:\
  \ null\n          recurrent_dropout: 0.0\n          recurrent_initializer:\n   \
  \         class_name: Orthogonal\n            config: {gain: 1.0, seed: null}\n\
  \          recurrent_regularizer: null\n          return_sequences: true\n     \
  \     return_state: false\n          stateful: false\n          trainable: true\n\
  \          units: 128\n          unroll: false\n          use_bias: true\n     \
  \ merge_mode: concat\n      name: bidirectional_2\n      trainable: true\n    inbound_nodes:\n\
  \    - - - bidirectional_1\n        - 0\n        - 0\n        - {}\n    name: bidirectional_2\n\
  \  - class_name: SeqSelfAttention\n    config:\n      attention_activation: linear\n\
  \      attention_regularizer_weight: 0.0\n      attention_type: multiplicative\n\
  \      attention_width: 15\n      bias_constraint: null\n      bias_initializer:\n\
  \        class_name: Zeros\n        config: {}\n      bias_regularizer: null\n \
  \     history_only: false\n      kernel_constraint: null\n      kernel_initializer:\n\
  \        class_name: VarianceScaling\n        config: {distribution: normal, mode:\
  \ fan_avg, scale: 1.0, seed: null}\n      kernel_regularizer:\n        class_name:\
  \ L1L2\n        config: {l1: 0.0, l2: 9.999999974752427e-07}\n      name: Attention\n\
  \      return_attention: false\n      trainable: true\n      units: 32\n      use_additive_bias:\
  \ true\n      use_attention_bias: false\n    inbound_nodes:\n    - - - bidirectional_2\n\
  \        - 0\n        - 0\n        - {}\n    name: Attention\n  - class_name: TimeDistributed\n\
  \    config:\n      layer:\n        class_name: Dense\n        config:\n       \
  \   activation: softmax\n          activity_regularizer: null\n          bias_constraint:\
  \ null\n          bias_initializer:\n            class_name: Zeros\n           \
  \ config: {}\n          bias_regularizer: null\n          kernel_constraint: null\n\
  \          kernel_initializer:\n            class_name: VarianceScaling\n      \
  \      config: {distribution: uniform, mode: fan_avg, scale: 1.0, seed: null}\n\
  \          kernel_regularizer: null\n          name: dense_1\n          trainable:\
  \ true\n          units: 20\n          use_bias: true\n      name: time_distributed_1\n\
  \      trainable: true\n    inbound_nodes:\n    - - - Attention\n        - 0\n \
  \       - 0\n        - {}\n    name: time_distributed_1\n  name: model_1\n  output_layers:\n\
  \  - [time_distributed_1, 0, 0]\nkeras_version: 2.1.4\n"
